checkpoint.pth (torch_old, 972289 bytes, 8 tensors)

fc1.weight f4 [256, 784]
00000000: 5b6d d63d 26b6 d13d 7201 663d dcbd 853d
00000010: 5f38 843d c2b8 9f3d 7e8e e93d ade1 af3d
00000020: e09b ae3d 2f0f d93d 8df5 8f3d 61fc b23d
00000030: 278b 903d b280 5f3d 6535 603d 09ca bc3c
00000040: 87b4 a13d e350 b23d c0e3 7f3d 84b8 d23d
00000050: 5ab9 f03d da9a d03d 6360 c13d 12a8 e73d
00000060: 0719 a73d 02c7 833d f91e 773d e6a8 df3d
00000070: 8709 363d e66d a33d d263 c73d 77f6 bf3d
00000080: cc0e c33d 966a da3d 5b32 de3d b025 613d
00000090: f586 773d 9a67 8b3d f7c7 a13d e67f f63b
000000a0: 5be9 b6bb 4488 073d 6379 b03c c334 623d
000000b0: 3d1e 363a 5661 d13d 2ba1 b33d c525 5a3d
000000c0: c09a c23d 0bfd d33d 6fdd b83d 9503 233e
000000d0: 55d9 e53d 9389 d03d 54d4 ef3d 2820 6e3d
000000e0: 5f63 ca3d 023a be3d 8e2f a93d 2d4a c23d
000000f0: 5cc5 d93c 5772 c53b e356 803c f7bd 1d3d
00000100: 3209 a73d c590 393c b86e 023d 14b1 f93c
00000110: fc33 1c3d 4589 803d 09ef 943d b2f5 8f3d
00000120: c2b0 043d b7d9 253d 01fe 743c a1b8 4f3d
00000130: d9ef ac3d a0c9 473d fb82 183d 4ac1 9e3d
00000140: 8f94 2a3e 3d76 393e 5566 d63d bbaf d53d
00000150: 170e d23d d29d e43d 004b 493d 3d3e 9c3d
00000160: c50f 01bd 1b8c 053d a947 9abc f6fd 18bd
00000170: 1e5d 96bc be31 143c 591b 403c ce86 16bc
00000180: 9ef1 8d3a 2041 2abc 44bd 41bd 1f80 d43c
00000190: 5433 883d 8168 4ebd 8a37 6bb8 987d babc
000001a0: a3c5 e63c f7d5 f73c 2d6c 803c 1efe 8fbc
000001b0: 4867 f73d 10d4 073e c77e de3d 9227 b93d
000001c0: 49e4 723d ee94 c23d 09e0 4d3d e5b5 383d
000001d0: 4d33 3f3d bbc3 993b 28af 5cbd e487 7a3b
000001e0: ddd0 c8bc 513b 0bbd 3d99 debc d7a3 d53c
000001f0: db77 903c 9e50 133d 2e7f 903b 6e3d 943c
00000200: 7898 7b3c aa58 5bbc 0281 763c 08b1 123d
00000210: 5f3f 05bd 17eb d9ba eb37 0dbd 2311 9e3c
00000220: a8fe ab3d 8e66 da3d 25c5 d93d 9d05 be3d
00000230: a5a8 ae3d ddee 233d fb17 093c 74d0 7cbb
00000240: 5d98 913c b7a0 08bd bcf7 fcbc 6aac fabc
00000250: 7766 bebb d008 003c 0b61 cd3b 1824 e83b
00000260: 275a 2db9 5a20 a73c 2706 c8bb af30 5dbc
00000270: 2381 dbbc 9f3e 8abb 7f9c 27bd 74fa d6bc
00000280: bbec 8d3c b8a9 b2bb 864f 243c 33d4 4dbc
00000290: 9761 073d e369 bb3d 3c9c a53d 124c c53d
000002a0: feaf b63d b8e8 723d fa46 853d a28c 8f3c
000002b0: 287a 40bd 6ae9 543b 9365 1ebd 6e70 05bd
000002c0: b37f 843c 65d0 35bd d2cf 4cbd 41e6 0c3c
000002d0: 9b47 3ebb 5139 2abd f99e a6bc a016 3c3d
000002e0: 1fca 2ebb aa8f 00bd a34b ecbd 297f 51bd
000002f0: 241f 953b 57f7 303d 58c2 743d 71fe 9a3d
00000300: 041f de3c d519 213e f5bf 173e 05f0 bc3d
00000310: 0a77 913d 2321 d53c d991 203c 35b1 76bc
00000320: 9d89 c2bb d1dc 9abc 4479 a8bc 7231 d13c
00000330: e1fc abbc bc35 89bd 4783 d73c 7909 c8bc
00000340: d282 133c e3dc 4cba 441f ea3c f69e 8f3d
00000350: 86cd 0f3d 36b3 7fbd 85c2 3bbc b0da 47bd
00000360: f686 143d 3384 853d f7b9 cf3c 813e 733d
00000370: e348 f93d 0892 5d3e 16cf 253e 67b5 923d
00000380: a7b0 b13d c03d f73c 25d7 ac3c 9b45 d4ba
00000390: 7ddf 43bd 80e0 803b d28a 9a3b 3633 113d
000003a0: f2bd 8abb d309 21bd c5f7 a3bc 7eb0 09bd
000003b0: 15d3 513c cb54 18bc 68f8 0c3d 01c3 8b3d
000003c0: 3120 783d ac44 a8bd d514 d3bc 9a94 b0bc
000003d0: 3398 243c e618 ae3c 70e1 933d 0641 4f3d
000003e0: 71b6 fd3d 7c9c 153e 0f1f bb3d b848 7c3d
000003f0: 1b73 9e3d 5bda 8d3d cbc5 9c3d 8d30 fc3c
0.10470077 0.1023982 0.056153722 0.065303534 0.064560644 0.07798912 0.11404131 0.08587966
0.085258245 0.10598599 0.07029257 0.08739544 0.07057791 0.054566093 0.05473842 0.023045557
0.07895761 0.08706834 0.06247306 0.102891 0.11754103 0.101857856 0.094422124 0.11311354
0.081590705 0.06434442 0.060332272 0.10920887 0.04444268 0.07979946 0.09735836 0.09373181
0.09524307 0.10664861 0.10849448 0.054967582 0.06043144 0.0680687 0.078994684 0.007522571
-0.0055820174 0.033088937 0.021542257 0.0552261 0.0006947255 0.102236435 0.08770975 0.053258676
0.095021725 0.103509985 0.0902661 0.15919335 0.112230934 0.1018249 0.1171042 0.058136135
0.09882235 0.09288408 0.082610235 0.09486804 0.026583366 0.0060255933 0.01566643 0.038511243
0.08156051 0.01132602 0.03184387 0.030479945 0.038135514 0.06276182 0.07272155 0.070292845
0.032395132 0.040490832 0.014953137 0.050713185 0.08444185 0.04877627 0.037234288 0.07751711
0.16658233 0.1811151 0.10468737 0.104339086 0.10256594 0.11162914 0.04914379 0.076290585
-0.03150918 0.032604318 -0.018832998 -0.03735157 -0.018354949 0.009045063 0.01172527 -0.009187413
0.0010829454 -0.010391504 -0.04729964 0.02594 0.06650415 -0.05039263 -5.608009e-05 -0.022764966
0.028170412 0.030253394 0.015676582 -0.017577227 0.12080246 0.13264489 0.108640246 0.090407506
0.05929974 0.09501062 0.050262485 0.045095343 0.046679784 0.0046925223 -0.05387798 0.003822797
-0.024513656 -0.033992115 -0.02717268 0.026079101 0.017635277 0.035965554 0.0044096923 0.018095698
0.015356176 -0.013387838 0.015045406 0.03581336 -0.03253114 -0.0016625848 -0.034477156 0.01929528
0.08398181 0.10664092 0.106333055 0.092784144 0.0852826 0.04002272 0.008367534 -0.0038576396
0.017772848 -0.033356395 -0.030879848 -0.030599792 -0.0058105546 0.007814601 0.006267672 0.007084381
-0.0001653215 0.020401169 -0.006104249 -0.013500377 -0.026794976 -0.004218891 -0.04092073 -0.026242472
0.017324796 -0.005452361 0.0100287255 -0.012562799 0.033052053 0.09151056 0.0808644 0.0963365
0.089202866 0.05930397 0.06507678 0.017523114 -0.046991497 0.0032487758 -0.038671087 -0.032577924
0.016174173 -0.044388194 -0.05000288 0.008599819 -0.002903438 -0.041558567 -0.020339476 0.045920014
-0.0026670767 -0.03138701 -0.11537864 -0.05114666 0.0045508314 0.04320463 0.059755653 0.07568062
0.027114399 0.1573251 0.1481932 0.092254676 0.07102783 0.026016777 0.009800398 -0.015056898
-0.005936815 -0.018904122 -0.020565636 0.025536273 -0.020994605 -0.06699702 0.026307715 -0.02441858
0.009003358 -0.0007814897 0.028579362 0.07012741 0.03510811 -0.06242677 -0.011459951 -0.04879254
0.03626152 0.065193556 0.02535723 0.05938578 0.12172105 0.21637738 0.16192278 0.07163506
0.08676272 0.030180812 0.021098683 -0.001619506 -0.047820557 0.0039330125 0.0047162557 0.03544923
-0.004234069 -0.03931601 -0.020015607 -0.03361558 0.0128066735 -0.00929756 0.034416586 0.068243034
0.060577575 -0.08216223 -0.02576677 -0.021555234 0.010046053 0.021252107 0.07220733 0.05059912
0.123883136 0.14610475 0.09136783 0.061592788 0.077367984 0.069264136 0.076549135 0.03078487

fc1.bias f4 [256]
00000000: 8f89 80bd c939 b0bc c4ef d6bd 8f27 aabd
00000010: 43c7 67be 5cef e6bd cf8c e3bd 4d68 dabd
00000020: b803 27bd 0b82 d7bd dd26 ed3d 8f0f a0bd
00000030: 35c7 30be 8a48 67be c440 05bd 888c f0bd
00000040: e9f9 75be 341a a6bd 5658 e0bc 7dde d6bd
00000050: 32ce 3abe 892f 05be 8668 cabd d74f 7dbe
00000060: 1870 b8bc 9474 28be 2d62 cabd 2c5d a1bd
00000070: be1c 28be 0360 2dbe 7a94 e5bd d9d1 a7bd
00000080: 1201 19be 0bbb dfbd 834e 47be 153d 42bd
00000090: 5239 00be 5d50 07be 16e3 efbd a091 37bd
000000a0: 739e 02be f80f 71bd 99a1 b6bd a401 813d
000000b0: c32a 15be c796 5fbe a719 66be 3a02 d3bd
000000c0: d308 b0bd e8ca 38be c925 debd 92f9 e0bd
000000d0: 3873 34bd f59d 9ebd f349 b8bd f451 13be
000000e0: 8bbf 1fbd 1a97 1ebe 653d 20bd 8a78 e9bd
000000f0: 1cdd 30be c884 79be ad23 90bd d024 9fbd
00000100: 476e 1ebe d15e 53be 4686 38be 919a 33be
00000110: a1d9 09be 05a6 5ebc a3d0 76bd e3c4 e8bd
00000120: 5510 2cbe a935 02be 90c9 a7be c286 00bd
00000130: 3f00 d9bc 443d dbbd 439c 143e 9aa5 dbbd
00000140: 737b cfbd 0f98 99bd 80ee 0bbe 6812 33be
00000150: ae5f 38bd 3970 6abd 939b 03bd 87c3 04bd
00000160: c34b 43bd c1b1 02be 67f2 8fbd 08a2 cfbd
00000170: 7b8f 7cbe 60e6 a63a f169 4cbe d4b3 efbd
00000180: f15f 22be 7fce cbbd 5e9e 7ebe bfd5 45bd
00000190: ef58 1dbe ee23 abbd a290 28be 20c4 b6bd
000001a0: a17f e9bc 27dd 3fbe 4658 34be 037e e0bd
000001b0: 5d46 2abe 1436 44be 53dc d7bd 2b17 2fbe
000001c0: e581 d0bd 3f7f dcbd 7744 25be da40 1ebe
000001d0: 1532 1ebe 0d12 95bd d648 32be f499 2cbe
000001e0: 90ee 43be d034 49bd c610 bb3b c7fd bfbd
000001f0: f728 3cbe fe40 02be dddd 37be d0fd a0bd
00000200: 26f3 f3bd f357 7ebd 0368 26be db05 e8bd
00000210: 99f9 9a3c 39fe 16be 454d 5dbe c998 39be
00000220: 911d 3ebe 5027 4cbe ba49 babd 6e11 3dbe
00000230: 2cd4 92bd aa58 46be bb90 68be cfa2 86bd
00000240: 4036 0ebe ca2e e9bd dbc6 8bbd 4b0d 42be
00000250: 4ee5 bd3d 1325 95bd 02d6 37be be9e c4bc
00000260: 1aea a9bd d4b3 ed39 26a7 60be b844 813e
00000270: f4bd 27be 9ea0 b5bd aa83 dfbd ca8f 81be
00000280: 11d0 1dbe 69ea e5bd 8725 70be c5da bbbd
00000290: 4176 e4bd 3f2e 9dbd 3794 d0bc ea97 38bc
000002a0: dc1d 9ebd dd4a 22bd 0277 c3bd b725 73be
000002b0: 19fe c8bd 5071 0abd d7b7 c2bd 8ce8 43be
000002c0: 9538 1bbe 0f4c e0bb 298c 24be 9093 17bd
000002d0: 06ed a6bd a7ea e1bd 8eb2 c3bd 51ec dabd
000002e0: ff0d fdbd c432 203e e39c e5bd 8d8e 46bd
000002f0: 1d7d 6dbe 753d 14be 7d70 93bd 12a7 2bbd
00000300: bbd2 90bd 0d7e 41be ddfb b8bd 0431 11bd
00000310: 29a6 0ebe 6af6 c53d 0062 92bd a9ce 24be
00000320: 35f6 1cbe 452b 2fbe 898c dfbd 9f75 89be
00000330: 5c69 c6bc d4fd 01be b2bd e3bd c398 2fbe
00000340: 2b48 06bd 8a6f 43be 2d3b b8bd 669d 3ebe
00000350: 50fe e2bd 14d9 aabc 1d6b 1dbe a8af 05bd
00000360: 74e0 7dbd 8044 f0bd 9a12 04bd afbd 2bbe
00000370: 73bd 3fbd f06c d7bb 64bf bcbd 80f6 b1bd
00000380: 2d86 6bbd e9d9 93be dc4f ebbd 5cf0 15be
00000390: 247a 00be fa03 04bd ac28 d1bd 187d fabd
000003a0: 0fa4 98bd 8c32 e1bd 1d21 65be 0b8d 49be
000003b0: 8975 f8bd 0028 febd 6454 edbd 9144 03be
000003c0: 8f39 44bd c741 28bd 8056 bf3d 9334 2e3e
000003d0: 6111 953d 593d 21be dfe4 29bd 42f5 38be
000003e0: c3ab 1cbe c1d6 b6bd f4cf eebd 0a87 5ebe
000003f0: dd1a 1abe 25f8 24be 4d49 6f3c c813 d8bd
-0.06276237 -0.02151193 -0.104949504 -0.083083265 -0.22634606 -0.11276123 -0.111108415 -0.10664425
-0.04077503 -0.105228506 0.11579678 -0.078154676 -0.17263491 -0.22586265 -0.03253247 -0.11745554
-0.24021114 -0.081104666 -0.027385872 -0.10491655 -0.1824272 -0.13006414 -0.098832175 -0.24737488
-0.022514388 -0.16450721 -0.09882007 -0.07879099 -0.16417214 -0.16931157 -0.1120996 -0.08194322
-0.14941815 -0.109243475 -0.19463544 -0.047421534 -0.12521866 -0.1321425 -0.11713235 -0.044816613
-0.12755756 -0.05885312 -0.08917541 0.06299141 -0.14567094 -0.2183486 -0.22470723 -0.10303159
-0.08595433 -0.18046153 -0.10847051 -0.10985102 -0.044055194 -0.07744972 -0.0899848 -0.14386731
-0.03900103 -0.15487328 -0.03912105 -0.11399944 -0.17271847 -0.24367058 -0.070380546 -0.07770693
-0.15471755 -0.20641638 -0.18019971 -0.17539431 -0.13461925 -0.013589387 -0.060257565 -0.11365678
-0.16803105 -0.12715782 -0.32770967 -0.031378515 -0.026489375 -0.10705045 0.14512734 -0.10724945
-0.10130968 -0.07499706 -0.136652 -0.1748749 -0.045013122 -0.05723593 -0.03213079 -0.032413032
-0.047679674 -0.1276312 -0.070286565 -0.10138327 -0.24664108 0.0012733452 -0.19962288 -0.11704221
-0.15856911 -0.099514954 -0.248651 -0.048299547 -0.15365957 -0.083564624 -0.16461423 -0.089241266
-0.028503241 -0.18736707 -0.17611799 -0.10961535 -0.16628404 -0.19161254 -0.105400704 -0.17098682
-0.101810254 -0.10766458 -0.16139399 -0.15454426 -0.15448792 -0.072788335 -0.17410597 -0.16855603
-0.19133973 -0.04912263 0.0057087867 -0.09374576 -0.18375002 -0.12720105 -0.17955728 -0.07860911
-0.11911611 -0.062095594 -0.16250615 -0.11329242 0.018917846 -0.14745416 -0.21611507 -0.18124689
-0.18565966 -0.19936872 -0.090960935 -0.1846368 -0.07169375 -0.1936976 -0.2271146 -0.06574022
-0.13887882 -0.113858774 -0.06825038 -0.18950383 0.09272252 -0.07282462 -0.17952731 -0.024001475
-0.082966045 0.00045338145 -0.21938762 0.2524774 -0.16381055 -0.08868526 -0.10913785 -0.25305015
-0.15411402 -0.11226351 -0.23451816 -0.09172586 -0.11155368 -0.07674836 -0.0254613 -0.011266688
-0.07720539 -0.039622176 -0.09544183 -0.23744856 -0.0981409 -0.03379947 -0.09507721 -0.19131678
-0.15158303 -0.0068450044 -0.16069092 -0.03700596 -0.081506774 -0.110310845 -0.09555541 -0.10689605
-0.12356185 0.15644366 -0.112115644 -0.04847579 -0.23192258 -0.14476569 -0.0719919 -0.041907378
-0.07071444 -0.18895741 -0.09032414 -0.035447136 -0.13930573 0.096661404 -0.07147598 -0.1609446
-0.15328296 -0.1710635 -0.10915477 -0.2684755 -0.024220161 -0.12694484 -0.11120166 -0.17148118
-0.03278367 -0.19085518 -0.08995662 -0.1861473 -0.110836625 -0.020855464 -0.15372892 -0.032638222
-0.061981633 -0.11731815 -0.032244302 -0.16771577 -0.046811532 -0.0065742657 -0.09216192 -0.08689594
-0.057501007 -0.2887719 -0.11489841 -0.14642471 -0.12546593 -0.032230355 -0.10212836 -0.12230891
-0.07453167 -0.10995969 -0.22375913 -0.1968271 -0.12131793 -0.12409973 -0.11588362 -0.12819125
-0.047906455 -0.041078355 0.093426704 0.17012243 0.072787054 -0.15746059 -0.041478034 -0.18062308
-0.15299897 -0.0892768 -0.11660758 -0.21731201 -0.1504931 -0.16110285 0.014604879 -0.10550648

fc2.weight f4 [128, 256]
00000000: 399b 6dbd 8bea 56bd d3a1 dfbd 32c5 9c3d
00000010: 4706 013e 791a 663e d030 093e 5432 9abd
00000020: c22a 653c 56d6 413e 38b1 60be b659 723c
00000030: a43f 213d e455 a33e 6e10 e83c 42a4 85bd
00000040: 2e86 503c ae1d 83be f618 20bd d264 57be
00000050: fc69 a73e dfe4 78be 9dd8 0abd 1a10 32be
00000060: 405a 94ba faec a93e c01c 833d d3c6 b8bd
00000070: ec1f 72bc a4b6 843e d6f4 973d e9f1 5d3c
00000080: d7e2 f9bd 3a77 3d3c 940c 42bd 1040 f0bd
00000090: 5271 503d 1d00 393e 473f c03d 88df 2d3e
000000a0: 03b9 f8bd c7cb d7bc a4e8 3ebe c0fa 20bd
000000b0: 0d6b ae3d 25d4 3dbd 6813 85bd 3e55 e5bc
000000c0: e7b1 b43d 27ef 383e a8d3 3c3d d66c 08be
000000d0: 72fa 433d 3342 6ebe 0ec6 80bd 608b 66bd
000000e0: 7280 473b fd01 753d ee0e 94bd 95c2 0dbe
000000f0: 0eeb 5bbd d5ce 493e e6ac 743e ec29 b53d
00000100: 1690 3abd 8c47 df3c f274 daba 9cda d5bd
00000110: 53f2 31be 1c54 833e e223 19bd 29bb f03d
00000120: 1bf0 7b3e 7760 c9be 6713 b9be 5a02 a3be
00000130: 2d8e 7cbe c540 aebc df5e 06bf 8445 ba3d
00000140: f213 543d 7901 35be a353 a93c 01d0 53be
00000150: a799 01be 5597 38bb c64e 85bd 0732 d1be
00000160: 2ae9 1c3e 524f 82be 90d2 efbc 1643 22bd
00000170: 0c0c eabd 80f7 51bd 2840 993e dfb0 51be
00000180: 94e3 e33d 5b24 553d 7564 f13d f726 783e
00000190: adc9 503d deb5 0c3c 8b29 a8bc d36c fabd
000001a0: 54a4 a83d 6869 29be 3cb9 c0bc 58ef 513e
000001b0: 0085 103e e839 75bd 9749 4a3e b3d4 c03e
000001c0: 1e46 8bbb 880c 82be b760 78be 0fd0 493d
000001d0: 2eac 6d3e bf38 7c3d ea8a 1ebd ffa0 c63d
000001e0: d220 293e 1f36 d8bd a99e 023d 37e8 58bd
000001f0: 0281 02bb d9ee b5bc 470a 59bd d530 8dbe
00000200: 00a8 abbe c9bb 84bb d9ea 1cbe 2f7d 45be
00000210: ce67 63be 4a1f cfbe f02e 4d3d 10a6 c33d
00000220: 6002 f83d a717 883d e4eb 60bd 9b3d e6bc
00000230: 7b15 6fbd f7bf acbd 47c1 c2bd 0120 713e
00000240: 1cc9 45bd 6d1d 7cbc 08ee fa3b bcba 423c
00000250: 665c c03a 8f88 b53d fbea 0ebe b76a ff3a
00000260: e386 423d 4302 e9ba 34b3 2abe 2884 ff3c
00000270: 50f8 a8bc 468b a83d ac11 84be 3084 e5bd
00000280: 658a 903d b311 83bd 8100 1a3e ac64 f339
00000290: 4952 8d3e d349 583d 4cbb 203d 11af f63b
000002a0: 3923 923d 91e8 6fbd 8081 d7bd fd8c f53d
000002b0: 028e 8abd 189d aabe df0c f93d aa77 a53d
000002c0: ca14 62bd f7af 2b3b 2c75 e53d 3adb 883d
000002d0: 95dd a2bd 2b2a 6c3c 1ab6 cebc 02a4 ef3d
000002e0: e489 833d 390f 5b3e e980 12bd 6f0c 1c3e
000002f0: 8a4b 2f3d a278 b9bd 1ebb 3dbc 6d19 02be
00000300: 1d1b 12bb a490 f4bb e80d bb3e 547d f2bd
00000310: 0f62 76bd e6c6 26bf 8ba3 353d 5c06 c2be
00000320: dbe7 8ebe e2cf 37bd 1828 673d a159 62bd
00000330: 5d8e 65bd 04df 9ebd b3e8 5fbd 9b5f c7bd
00000340: 7434 61be 96c7 65bd 8c1b 0e3d 0905 52be
00000350: f150 653d 319a a0be 17d8 04be f860 363c
00000360: d372 4dbd 93f5 00be 0a10 b03c 3c44 23be
00000370: de1f 37bc 038b b8be 11cf 23be b294 bbbe
00000380: e035 af3c 551c 6f3e 6f0a dfbd 6728 55be
00000390: b4ea 16be 03e4 a939 9998 1c3e 6d30 f9bc
000003a0: 98b6 39be a97e cdbc 495b dfbe d1ff a4bd
000003b0: d366 97bd e790 f03d bddc 5dbc 7d79 fdbc
000003c0: 5572 66bd 52ca 8e3d 69bd 06be df26 01bf
000003d0: fb27 4d3e 7942 083d c5aa a63c 1a64 08be
000003e0: 9b94 bdbe 5842 0fbe c2f2 81bd 1e4e 13be
000003f0: 3fc8 8b3e 3550 133e cff3 0abe 1318 153e
-0.05800936 -0.05246977 -0.109195374 0.076547995 0.12600051 0.22471036 0.13397527 -0.075291306
0.013987245 0.18929419 -0.21942604 0.014791897 0.039367333 0.31901467 0.028328147 -0.0652547
0.012727303 -0.2560858 -0.039086305 -0.21034554 0.32698047 -0.24306057 -0.033897985 -0.17388955
-0.00113184 0.3318861 0.06401968 -0.09022298 -0.014778119 0.25920594 0.074197456 0.013546445
-0.122014694 0.01156407 -0.047375277 -0.11730969 0.05088932 0.1806645 0.09387069 0.16979802
-0.12144663 -0.026342286 -0.18643433 -0.039301634 0.08516512 -0.046344895 -0.06497842 -0.027994748
0.08822995 0.1805998 0.04610029 -0.13322768 0.047846265 -0.2326744 -0.06287776 -0.056285262
0.003044155 0.05981635 -0.0722941 -0.13843758 -0.053690962 0.19707806 0.2389408 0.088458866
-0.045547567 0.027255796 -0.0016666932 -0.10442087 -0.17377596 0.25650108 -0.037387736 0.11754448
0.24603312 -0.3933141 -0.36147615 -0.31837732 -0.24663611 -0.021271119 -0.5248851 0.0909529
0.051776834 -0.17676343 0.020669764 -0.20684816 -0.1265627 -0.0028166373 -0.065091655 -0.4085848
0.1532332 -0.25451142 -0.029275209 -0.03961476 -0.11428079 -0.051261425 0.2993176 -0.20477627
0.111273915 0.052036624 0.11786739 0.24233614 0.050973583 0.008588282 -0.020527622 -0.12227788
0.08234468 -0.16544116 -0.023525827 0.20501459 0.14113235 -0.059869677 0.19754635 0.37662277
-0.004250302 -0.25400186 -0.24255644 0.049270686 0.23210213 0.061577555 -0.038706698 0.09698676
0.16516426 -0.10557198 0.03188959 -0.052955832 -0.001991332 -0.022208618 -0.052988317 -0.27576318
-0.3352661 -0.004050706 -0.15323962 -0.19286035 -0.22207567 -0.4045356 0.05009359 0.09553158
0.12109828 0.06645136 -0.054912463 -0.028105548 -0.058370095 -0.08435052 -0.09509521 0.23547365
-0.048287496 -0.015387875 0.00765777 0.011885341 0.0014675974 0.08863937 -0.13956825 0.001948676
0.04749192 -0.0017777163 -0.16669923 0.031190947 -0.020626217 0.08229689 -0.25794733 -0.112068534
0.07057647 -0.0639986 0.15039255 0.00046423578 0.2760184 0.05280478 0.03924112 0.0075281938
0.071356244 -0.058571402 -0.10522747 0.11989782 -0.06765367 -0.33322978 0.12160658 0.08079465
-0.055195607 0.0026197413 0.112039894 0.06682439 -0.0795242 0.0144143505 -0.025233317 0.11701204
0.06422785 0.21392526 -0.03576747 0.15239118 0.04279665 -0.09056212 -0.011580257 -0.12705012
-0.0022293993 -0.0074635316 0.36534047 -0.11840311 -0.06015211 -0.65147245 0.04434542 -0.37895477
-0.27911267 -0.044875987 0.05643472 -0.055261258 -0.05604397 -0.077573806 -0.05466528 -0.09735032
-0.21992666 -0.056098543 0.03469424 -0.20509733 0.055985395 -0.3136764 -0.12973057 0.011131518
-0.050158333 -0.12593679 0.021492023 -0.15943998 -0.011177031 -0.36043558 -0.15996958 -0.36636883
0.021387994 0.23350652 -0.10890662 -0.20816194 -0.1473797 0.00032404074 0.15292586 -0.030418599
-0.1813606 -0.02508481 -0.43624333 -0.080566056 -0.07392659 0.11746388 -0.013541398 -0.03094172
-0.05626138 0.06972183 -0.13158192 -0.5044994 0.20034783 0.03326652 0.020345101 -0.13319436
-0.3702744 -0.13990152 -0.063451305 -0.14385268 0.27301213 0.14386065 -0.13569568 0.14559965

fc2.bias f4 [128]
00000000: 7734 293e 6666 c73d c611 1f3e c51d b5be
00000010: 443e 50bd 0b04 f23e 4da2 9a3d d485 edbe
00000020: ace6 b63d 2f41 2f3e ab20 29bf f3ac cfbe
00000030: 0357 b13c 4661 06bd 534a c33e 3aa3 84be
00000040: 67aa 90be d757 a6be b698 1cbf a51e 9dbe
00000050: f8a6 003e 1bff d83d 0228 8e3d e38a 8fbd
00000060: 77ac 5a3e 7f6c 35be ea07 f4be d066 1c3f
00000070: df7e 6e3f 20a3 903e 78b8 edbd 66aa 5bbe
00000080: 91b4 dfbe 6fc4 f63e a5ac 203f 92ad afbe
00000090: fbe8 253e 92ac 3cbd 88d5 8abc 8e18 eabe
000000a0: c661 f23e b933 023f af15 a63e 3962 d6be
000000b0: e242 83be 1854 6e3e 6c9a 0a3e df89 2dbf
000000c0: be98 32be dfa7 e93e aa02 8bbe de8e 2ebe
000000d0: 7e03 4a3e 41a4 a73d c5c7 16bf abc1 aa3e
000000e0: 6e82 f73e 612b 393e 46bc af3e 5709 38be
000000f0: 7131 08bf 6e73 99bc 5c37 94be 633e 7bbe
00000100: 96f8 c43d 17b0 b8be 7d1b 2f3e aac5 613f
00000110: fa5f b33e 793a 1fbf d6db 8c3e 54f6 153f
00000120: 5f0f 6c3e 9b98 2a3f 7c95 bcbd 117b 603e
00000130: fe99 943d 696b d3be 619d 0bbf 9b72 693d
00000140: 2d52 9cbe 31ed c1be f564 ecbd ea2b 2fbe
00000150: 43b6 3abf 2714 213d 3377 e0bd 8754 b73d
00000160: f0fe 4bbd fe66 d13d e3d1 863e c311 4fbe
00000170: 1906 b2be b27e 153e 091d 3dbe 67bf 88bd
00000180: a84f 4ebd b48c 9e3d 2ddb ea3e 75e6 cdbe
00000190: 9790 d8be cdd2 233e 726b 023f e588 10bd
000001a0: 4309 20bd 809c e9be 7e9c 1e3f 2ec0 12bf
000001b0: 9a33 d7be 12df 02bf 87c7 4a3e 536d dcbe
000001c0: e279 993e f163 5fbe 5812 a33e 5e73 243f
000001d0: 76a0 ecbc 850b 093e c2cb 223e 9a08 5a3e
000001e0: c8fb 373e 9238 2abf 4e82 d0be 3365 1dbf
000001f0: 140d e53d 168b 413f 7eb5 64be 14c8 e73e
0.1652392 0.09736328 0.15534124 -0.35374275 -0.05084063 0.4726871 0.07550488 -0.46391165
0.08930716 0.1711471 -0.6606547 -0.40561637 0.021647936 -0.03280761 0.38142642 -0.25905782
-0.28255007 -0.3248889 -0.6117052 -0.30687442 0.12563694 0.105955325 0.06941225 -0.070089124
0.21354853 -0.17717169 -0.47662288 0.6109438 0.9316234 0.28249454 -0.1160745 -0.2145172
-0.4369245 0.48196742 0.62763435 -0.3431211 0.16202156 -0.046063013 -0.016947523 -0.4572186
0.4734022 0.5086017 0.32438418 -0.41871813 -0.25636965 0.23274267 0.1353547 -0.677885
-0.17441079 0.45635888 -0.2715047 -0.17046687 0.19727895 0.08185626 -0.58898574 0.33350882
0.48341697 0.18082954 0.3432333 -0.17972313 -0.5320044 -0.018731799 -0.28948486 -0.24535517
0.096177265 -0.36071846 0.1710033 0.88192236 0.35034162 -0.621986 0.27511472 0.5857899
0.23052739 0.6663911 -0.092081994 0.21921946 0.07255934 -0.41292885 -0.54537016 0.056994062
-0.30531445 -0.37876275 -0.115426935 -0.17106596 -0.7293436 0.03932586 -0.109602354 0.08951669
-0.049803674 0.10224722 0.26332006 -0.2022162 -0.34770277 0.14599112 -0.18468107 -0.06677132
-0.050368935 0.07741681 0.45870343 -0.40214887 -0.42297813 0.15998383 0.509452 -0.035286803
-0.039071333 -0.45627213 0.6195754 -0.5732449 -0.42031556 -0.5112163 0.19802676 -0.43052158
0.29975802 -0.21815468 0.31849933 0.64238536 -0.028885107 0.133833 0.1589804 0.21292344
0.1796714 -0.6649257 -0.40724415 -0.6148254 0.11184135 0.75602853 -0.22334859 0.45269835

fc3.weight f4 [64, 128]
00000000: 3214 68be e5ef b4bc 6510 84bd 5a13 65be
00000010: 409f 883e 3c7c 29be 1aa1 2dbe 9217 c0bd
00000020: e93e 443e d663 3bbe bb28 d03e 19b8 cabd
00000030: 0d85 8ebd 347c b3be 5435 8fbe 0be4 aabc
00000040: 98b6 1ebe b60f 6a3d c40a 2abd 03ce a03c
00000050: 1689 263d 4a14 39bd 9176 00be 237c 1c3d
00000060: 2bc6 d03b 02b1 19be c663 c73d 9c77 f6bd
00000070: 07b3 47bd 161d 2dbd e7ad 33be 7af4 cdbd
00000080: 4184 edbd 7f3e edbd a68b b9be a89c f33c
00000090: 2422 e8bd 4485 a4be 4bf9 a9bd 7bd4 e5bd
000000a0: f087 97bd 9fd4 57bc 0efd 78be 82c6 64be
000000b0: 5768 1ebe d2c9 0fbe 4ad8 d0be 8ed0 113e
000000c0: e301 4ebe 1387 9b3c 4b0a 713d a3f1 90be
000000d0: 5b36 25be bd30 58be f867 fbbd 7a93 68be
000000e0: 9cba 7bbe c9d6 a2bd eb5e a73d 85d4 1ebe
000000f0: 8828 3bbe 7f52 953e 8bbc 9d3d 41cc ec3d
00000100: 8285 05be 81c2 0fbe 2772 c8be 3ab0 a23c
00000110: fa7d 6bbe a9eb 8b3d ff4b 653e 97f6 b9be
00000120: bdff 11be 2e38 89be 3607 17be 8a47 683c
00000130: 3ffb c8bc f167 0b3e db37 01be d08e bebe
00000140: 3afb 50be b057 733d 46c5 31be 7229 51be
00000150: 2e62 cdbd dbf6 05be 4c24 3d3e c1cf 55be
00000160: d8da ebbd fc31 97be 61a1 95be f7c3 ae3c
00000170: f7eb bc3b 5cc9 c1be a20b 09bc a637 0cbd
00000180: 245f 683d df86 b8bd d63c 29be 6c7f 1fbe
00000190: c68d 0d3e a527 a7be 5427 95be bfeb eabd
000001a0: 1af4 67be 9f69 b2bc ca0c 43bd 0eec be3d
000001b0: 4e2e 96be b92a 933c 146d e23b 7cd8 49be
000001c0: f7a0 34be 57be ca3c 860f 91be 4d0d bcbc
000001d0: 1b7b b6be a389 4dbe 90e0 d33e d36d 193d
000001e0: 3245 65bd a55c 94be 6735 e7bd 9200 063e
000001f0: 736b 77be c7bc 6fbe 389f 02be 099b 97bd
00000200: 392b 51bd 10cf 01bc e979 8d3c 8c64 7f3d
00000210: cf85 bb3e 7c3f b73d 45a0 08bd e958 17be
00000220: fa91 813d e3bb 403d 2926 bf3d c955 c63d
00000230: 1180 6cbe e883 d2be 16d8 77be 72f1 d0be
00000240: c29a c43c fed8 86bd 9851 ddbd 9a2b ccbb
00000250: 5832 67be db7c 1d3e f0a8 863d 90ff c2bd
00000260: bc90 bfbd 00bb 273e f3e4 cf3b b9dd a53c
00000270: e4c6 e9bd f55d a63d 7202 afbd 88d9 8e3d
00000280: c8e1 a1bc 5205 64bd d4a3 86bc 8774 e6bd
00000290: 555e b1be d602 7d3d 7234 9cbe 7334 5e3c
000002a0: ff20 37be c5fc 0dbf 27a3 1cbe ec9d 8bbd
000002b0: 9d5f 543d cf05 013e 42cc 1ebe b862 e83e
000002c0: 9d1c cc3d a8bc 70bc 0b7f 133d 71b9 f63d
000002d0: b849 60bd 7032 cbbc a220 d73c 75f0 c73d
000002e0: b3c3 ca3c dae3 033e cfe7 90be 5bac 04bf
000002f0: 438e ccbb bc4b 44be bf6b 1d3e b71a 70bd
00000300: df4f 2cbf 448d 053e 3a30 2dbe 235c 15be
00000310: be9a 753c f9c9 663e 4374 c6bd f698 493e
00000320: 4a18 923d ee0e d9bd 5b3e a53d 58b3 7dbe
00000330: 3736 1dbe 58ca 423e fb52 3abe c273 64be
00000340: 09c3 853c fcc2 12bd 1f22 cfbd a3ed 843b
00000350: d83b 7e3e cd29 0cbe d44e 883c c963 0f3d
00000360: 576a 86be 9224 553d 7e64 1f3d 1437 b0be
00000370: fd2c 68bd be91 92be 0cca afbe 1997 9dbd
00000380: 4282 223e e2e9 303e e433 fdbc 9185 143e
00000390: edd0 70be 6614 0a3e 1efb ca3d 71ae a43d
000003a0: 2c57 0fbe 3ef3 d33b 452e 09bf 47c8 70bd
000003b0: 392e 173e 3c76 81bd 549d b1be eb01 b63d
000003c0: e759 e8bd f36c 403d c3f1 cf3d 05fa 8ebe
000003d0: afd4 b23d 03e3 e1bd 4139 b0be 43f2 81bc
000003e0: 7700 1dbd ae0b 3fbb ac13 cfbd 1ac4 f1bd
000003f0: 6563 fdbd b0c6 7bbe 0745 e83c b6e6 c83d
-0.22663954 -0.022087047 -0.064484395 -0.22370663 0.26683998 -0.16551298 -0.16955987 -0.09379496
0.19164623 -0.18299803 0.40656075 -0.09898395 -0.06958971 -0.35055697 -0.27970374 -0.020860692
-0.15499341 0.05714389 -0.041514173 0.019629484 0.04065808 -0.045185365 -0.1254523 0.038204324
0.0063712797 -0.1500893 0.09735827 -0.120345324 -0.04875472 -0.042264067 -0.17546807 -0.10056396
-0.11597491 -0.11584186 -0.36239356 0.029737785 -0.11334637 -0.32132924 -0.08299502 -0.11222168
-0.07398975 -0.013173251 -0.24315283 -0.2234135 -0.1546949 -0.14041832 -0.40790015 0.14239714
-0.20117907 0.018985307 0.058847707 -0.28309354 -0.16134016 -0.21112342 -0.1227569 -0.22712508
-0.24582905 -0.07951123 0.08172401 -0.15510757 -0.1827718 0.29164502 0.07701977 0.11562396
-0.1303921 -0.14039041 -0.3914959 0.019859422 -0.22997275 0.06832058 0.22392271 -0.36320946
-0.14257713 -0.26800674 -0.14748845 0.0141772125 -0.024533866 0.13613869 -0.12618963 -0.37218332
-0.20408335 0.059409797 -0.1736041 -0.20425966 -0.10028492 -0.13082449 0.18470877 -0.20880033
-0.115163505 -0.29530323 -0.29224685 0.021333678 0.005765434 -0.37848938 -0.00836459 -0.034232758
0.05673136 -0.090100996 -0.16527113 -0.15575951 0.13823614 -0.32647434 -0.29131567 -0.11470746
-0.22651711 -0.02177888 -0.04761962 0.093223676 -0.29332203 0.017964708 0.006909976 -0.19711488
-0.17639528 0.024748964 -0.28332156 -0.022955561 -0.35640797 -0.20072035 0.41382265 0.037458252
-0.055974193 -0.28976932 -0.112894826 0.13086155 -0.24162082 -0.23411857 -0.1275605 -0.074026175
-0.05106661 -0.007922903 0.017270045 0.06235175 0.36625525 0.089476556 -0.03335597 -0.1478001
0.06326671 0.047054183 0.0933345 0.09684331 -0.23095728 -0.4111626 -0.24203524 -0.40809208
0.023999576 -0.06584357 -0.108065784 -0.0062307836 -0.22577798 0.1537966 0.06575191 -0.09521401
-0.09353778 0.16379929 0.0063444315 0.020247327 -0.114148885 0.0812339 -0.08545388 0.069750845
-0.019760981 -0.055669136 -0.016435541 -0.112526946 -0.34642282 0.061770283 -0.30508763 0.01356231
-0.17883681 -0.5546382 -0.15296613 -0.068172306 0.051848996 0.12599872 -0.15507606 0.45387816
0.09966395 -0.014693417 0.03600983 0.12047089 -0.054757804 -0.024804324 0.026260678 0.097626604
0.02475152 0.12879887 -0.28301856 -0.51825494 -0.006242545 -0.19169515 0.15373133 -0.058619227
-0.67309374 0.1304217 -0.16912928 -0.14585929 0.014990507 0.22537984 -0.09690144 0.19687256
0.07133539 -0.10598551 0.08068534 -0.24775445 -0.15352713 0.190225 -0.18195717 -0.22309783
0.016328352 -0.035830483 -0.1011393 0.004056649 0.24827516 -0.1368782 0.01663915 0.035007272
-0.26253006 0.05203683 0.038914196 -0.3441702 -0.05668353 -0.28626817 -0.34333837 -0.07694835
0.15870002 0.17276719 -0.030908532 0.14504077 -0.23517199 0.13484344 0.09911178 0.080410846
-0.13998097 0.0064682057 -0.53586227 -0.05878475 0.14763726 -0.063213795 -0.34690344 0.088870846
-0.113452725 0.046978902 0.10153534 -0.27925125 0.087319724 -0.11029627 -0.3441868 -0.01586259
-0.03833052 -0.0029151249 -0.10111174 -0.118049815 -0.123724736 -0.24587512 0.028353227 0.098096296

fc3.bias f4 [64]
00000000: 2d34 2cbf b5f0 293f a6d6 803e bb3c 5f3f
00000010: 7ed1 273f 8966 51bf e9dc 2b3f 4603 223f
00000020: 48e8 0a3f 321b 6b3f 3b62 3e3f 6d40 bc3e
00000030: d51a 0abe 0bd0 4e3f 9c6d e83e 4c6d 0c3f
00000040: 7681 23bf c89f 2b3f ba33 d6be de51 813e
00000050: 0295 493f ebf1 973f 38e8 683f 6030 8f3f
00000060: 35e0 103f 552f 263f 4d40 7f3f eea4 0d3f
00000070: ece3 893f bc60 f53e a817 2cbf 4872 383f
00000080: 2343 193f 2773 4a3f 5ae2 843f d48b 513f
00000090: bdb7 833f 8147 4f3f 183d 1f3f fff0 463f
000000a0: 6411 7d3e f655 8c3f c2fd 1a3f d74c fc3e
000000b0: 4bac 413f 8617 343f 030c a63f fd7a 6d3f
000000c0: dad0 a8be 9a72 333f 4057 283f 9b80 723f
000000d0: c2d6 7e3f e4a8 b93e a74a 543f c784 2e3f
000000e0: 3fc5 4ebf b491 583f fc52 a13e c5c4 813f
000000f0: 5ecf eb3e 8d8c 273f da08 283f 6ed5 2d3f
-0.67267114 0.66382915 0.25163764 0.8720204 0.65554035 -0.8179708 0.6713396 0.63286245
0.54260683 0.9183837 0.7436864 0.36767903 -0.13486798 0.807862 0.45396125 0.54854274
-0.63869417 0.6704068 -0.4183634 0.25257772 0.7874299 1.1870703 0.9097934 1.1186638
0.5659211 0.6491597 0.9970749 0.5532979 1.0772681 0.47925365 -0.67223597 0.7204938
0.5986807 0.7908196 1.0381577 0.81853986 1.0290447 0.8096848 0.62202597 0.7771148
0.24713665 1.0963733 0.60543454 0.49277374 0.75653523 0.70348394 1.2972416 0.9276579
-0.3297184 0.70096743 0.6575813 0.94727486 0.99546444 0.36261666 0.8292641 0.6817135
-0.80769724 0.84597325 0.31508625 1.0138174 0.46056646 0.6544884 0.65638506 0.6790379

fc4.weight f4 [10, 64]
00000000: 8803 aabd b1a0 35be 03fd 38be c4ca 9c3c
00000010: 50d1 ec3d 7e83 d5bd 5e43 a73b bb7d 39bd
00000020: f510 12be a5b9 8d3d f4cd 6a3c d6d9 1abd
00000030: c56a 9d3d 9640 6bbd ac61 c2be 2956 babe
00000040: aaf3 2f3d 97a9 c33d 7457 7bbd 0fe9 13be
00000050: 90db 583d 1389 a83b ba34 7dbd f563 c2bc
00000060: 84df aa3d c81b 9dbc 8080 e13d 5ef9 1ebc
00000070: d1e4 20bd 728c 173d 02a0 fc3b 7b96 00be
00000080: abdd 3f3d 489b 903d eaf7 953d fa14 8fbe
00000090: ab95 c03c 4deb bdbd f01c 473c bfcc 753d
000000a0: b12d c43c 0545 79bd 5d73 b4bc dae7 1ebd
000000b0: a635 6cbd 3b61 0dbe f099 64be 4adf f63d
000000c0: d1e1 b7bc e4da de3d 6ddd 38be 7507 8abc
000000d0: fe87 603d 7e54 c5bd ac31 18bd fabf 1cbe
000000e0: 714e 6ebe 7d35 3a3d db18 29be 9e51 f13d
000000f0: eac9 c0bb 53c7 babc 1ffb 4abc df47 4c3c
00000100: dbfc 4d3d 8fff aabe 2749 83be f024 cbbd
00000110: 0f9e 10be eb55 e8be 46bb 23bc f7de b9be
00000120: 1eb7 0abe 1221 2abb 80bf 81be 8868 cdbd
00000130: 6180 6fb8 691e a4bd 10fb f5be 65d6 b5bd
00000140: 42f4 91bd 048e a53c 8b14 9d3d 61d7 95be
00000150: 1f62 70bd 4600 abbe ca78 9bbd 713f 133d
00000160: 5e45 ec3d 78d8 fb3d 09c9 0abc 7db9 84be
00000170: 5196 893b aa36 46bd ae07 62be c9d5 91be
00000180: 6adf 0b3e 700c 26be e6c9 07be 7f37 a2be
00000190: df3f 26bd 5a38 81be 2b54 14bd d0c3 63be
000001a0: bd6f c03d 94da 8abd 015a 193d 2d74 dcbd
000001b0: c770 0a3e d2fb 80bc 21ca 98be 609b 22be
000001c0: 0e09 55be 1d78 153e 4d55 5a3c 67f6 c13d
000001d0: 36d1 6cbc 1afa 613d cc3e a5bd d78e 87be
000001e0: c912 a5bd 0b2e 183e c731 253d 163a f5bd
000001f0: 15c6 753d ee58 b4be 8f44 47be fc96 9e3d
00000200: 1980 99bd 324f a3bd 981b 9fbe 6580 01be
00000210: 5cb4 46be 9971 0dbf a536 503c 8721 b2bd
00000220: 023e 0fbe 9839 dcbd 9672 533d 3931 043c
00000230: 3b90 453d f5f0 d83b 0e7c c1be eeb8 47bd
00000240: 79b7 223d b937 a9bd d328 c7bd 4fea 30be
00000250: d261 6cbe 3a9d e23d db1f ce3d 16eb eb3c
00000260: 821c e33d ce4e b33d a367 c23d b16d 81be
00000270: 2d01 12bd 126f 5bbd 607b eab9 b770 273d
00000280: ee2d 053d 41d3 8b3d 6fb7 9a3d b88e cdbe
00000290: 92ce fe3d ad67 30be f7b5 82bd 4e5b 223d
000002a0: 0f0d 1bbe cb42 b23d 750b 71be 9f4d 603b
000002b0: bf53 973d 9efa efbc fa08 cd3d 2251 23be
000002c0: 5bb7 98bc 0c45 d4bd 6f65 33be 100e 2bbd
000002d0: 460a 293d 2f75 0cbe fd88 743d 30d9 71bd
000002e0: 3be7 40be 7c3a 313d e445 82be b0e8 cb3d
000002f0: 4592 8abc b5a4 103e 2fff 0dbe c474 e3bd
00000300: dc7a 98be 9430 0cbf 53fa 64be 30a7 f9bc
00000310: 129a 303d 8df5 2dbe fed9 ba3d ec65 4ebe
00000320: 8e9d 42be b052 e5bc ce7a 2fbe 12e7 3cbd
00000330: caab 05be 1a8b ca3d a4c5 7abe 639f 883b
00000340: e961 5bbd 16fd d23d 037b 253c 39d9 c1be
00000350: c726 adbd d0c6 aabd fe0c 52be 6629 8d3c
00000360: cee6 f53b 7b47 00be b511 dcbd a3d0 4fbe
00000370: 76a9 943d 4ca3 0abe 1259 b9be 5fcb d2be
00000380: 82c8 f13d da4a 123c cf66 cbbd 5935 93be
00000390: dde2 29be 5c13 84be ed0b 073e 8fc6 42bb
000003a0: 3eb1 3dbc 2584 303d 3e97 563d 98d8 c6bd
000003b0: ec4d 8b3c 9445 2dbe 3615 a13b 3e16 0bbc
000003c0: c696 5dbc dfd2 e93d b736 3abc b78e e73d
000003d0: 2cad 933d 2ebb 71bd 0059 d8bc 7e82 a9be
000003e0: c784 51be 7952 a43d 2331 d7bd fdd2 56bd
000003f0: aef5 e6bd 1755 86be 538a 61be 7eeb 1abc
-0.08301455 -0.1773708 -0.18065266 0.019139655 0.11563361 -0.10425471 0.0051044663 -0.04528592
-0.14264281 0.069201745 0.01433133 -0.0378054 0.0768638 -0.05743464 -0.37965143 -0.3639386
0.042956986 0.09553831 -0.0613627 -0.14444374 0.052943766 0.0051432936 -0.061817862 -0.023729304
0.083434135 -0.019178286 0.110108376 -0.009703008 -0.039280716 0.036999173 0.007709504 -0.12557404
0.04684226 0.070608675 0.073226765 -0.2794569 0.023508867 -0.09273396 0.012152895 0.060009714
0.023947569 -0.060856838 -0.022027666 -0.03879533 -0.05766835 -0.13806622 -0.22324347 0.12054308
-0.022446545 0.10881594 -0.18053217 -0.016849259 0.054817192 -0.09635256 -0.037156746 -0.15307608
-0.2327211 0.045461167 -0.16513388 0.11783145 -0.005883445 -0.022800123 -0.0123889735 0.012468307
0.05028997 -0.333981 -0.25641748 -0.09919155 -0.14122795 -0.4537805 -0.00999338 -0.3630292
-0.13546416 -0.0025959653 -0.25341415 -0.100297034 -5.7101603e-05 -0.08013613 -0.48043108 -0.08878783
-0.071266666 0.02020932 0.07669934 -0.29265884 -0.058687326 -0.33398646 -0.07591398 0.035949174
0.11536668 0.122971475 -0.008470782 -0.25922766 0.0041988273 -0.048391975 -0.22073242 -0.28483418
0.13659444 -0.16215682 -0.13260612 -0.31682965 -0.040588256 -0.25238305 -0.03621308 -0.22242665
0.093963124 -0.06779972 0.03743935 -0.10764346 0.13519584 -0.015745077 -0.29841712 -0.15879583
-0.20804235 0.14596601 0.013326001 0.09470826 -0.014454177 0.055170156 -0.08068618 -0.26476166
-0.080602236 0.14861314 0.040330674 -0.1197397 0.06000336 -0.35224098 -0.19459747 0.07743642
-0.07495136 -0.0797409 -0.3107574 -0.12646635 -0.19404739 -0.5525146 0.012708341 -0.08697801
-0.13988498 -0.10753173 0.05162295 0.008068376 0.048233252 0.006620521 -0.3778996 -0.048760347
0.039725754 -0.082625814 -0.097245835 -0.17276882 -0.2308419 0.11065145 0.1006467 0.028798621
0.11089422 0.08755265 0.094924234 -0.25279 -0.035645653 -0.05357272 -0.0004472388 0.040878978
0.032514505 0.06827403 0.075545184 -0.40147948 0.12441744 -0.17227049 -0.06382363 0.039637856
-0.151417 0.08704146 -0.23539527 0.0034225953 0.0738902 -0.029294308 0.10011478 -0.15948918
-0.018642118 -0.10364732 -0.17519163 -0.041761458 0.041269563 -0.13716577 0.059700955 -0.059045017
-0.18838207 0.043268666 -0.25443947 0.09956491 -0.01691545 0.14125331 -0.13866876 -0.11106256
-0.29781234 -0.54761624 -0.22361116 -0.030475229 0.043115683 -0.16988201 0.0912361 -0.20156068
-0.19005415 -0.02799353 -0.1713669 -0.046118803 -0.13053814 0.09889813 -0.24489456 0.004169391
-0.05356017 0.103021786 0.010100129 -0.3786104 -0.08454662 -0.08338702 -0.20512769 0.017231654
0.0075043207 -0.12527268 -0.10745565 -0.20294432 0.072588846 -0.13538855 -0.36200768 -0.41170785
0.11805822 0.008928979 -0.099317186 -0.2875164 -0.16590448 -0.2579602 0.13188143 -0.00297204
-0.011577902 0.043094773 0.05239033 -0.09709281 0.01700493 -0.16921073 0.0049158586 -0.00848919
-0.013524717 0.114171736 -0.011365584 0.113065176 0.07210764 -0.0590164 -0.026409626 -0.3310737
-0.20460807 0.08023543 -0.10507419 -0.052447308 -0.112773284 -0.26236793 -0.22025423 -0.00945556

fc4.bias f4 [10]
00000000: 545c 9fbe e2f0 79bf 71f6 ea3d 0e52 513e
00000010: 00f8 453e 1d77 b03c a50e 22bd 9e43 9e3e
00000020: 2c2a 6ebb 1872 b9be
-0.31125128 -0.97633183 0.11472786 0.20441458 0.19332886 0.021541173 -0.039564747 0.30910963
-0.0036341054 -0.3621986
